DANN/model/cls.ckpt (torch, 171248 bytes, 4 tensors)

fc.0.weight f4 [256, 64]
0	0x3beef485	0.0072923326
1	0xbd11e027	-0.03561416
2	0xbd41bad5	-0.047297318
3	0x3bf1cd59	0.0073792157
4	0xbd8ac6b0	-0.06776178
5	0xbb6e0971	-0.0036321545
6	0x3de1a14b	0.11017092
7	0xbd36e992	-0.044656344
8	0x3d7c7c26	0.061641835
9	0xbe3797c6	-0.1792899
10	0x3d1c496e	0.038155966
11	0xbdefafb4	-0.117034346
12	0x3d5f3432	0.054493137
13	0xbdef0acb	-0.116719805
14	0x3dae0285	0.08496574
15	0xbd476e5f	-0.048689242
16	0x3d4ed1ce	0.050493054
17	0xbe0fc132	-0.14038542
18	0xbdba6b4d	-0.09102497
19	0xbe051dcf	-0.12999652
20	0xbd387196	-0.0450302
21	0xbc6c518e	-0.014423741
22	0x3e1a7ab9	0.15085877
23	0xbcfda9da	-0.03096478
24	0x3d39fd9d	0.04540788
25	0xbd3d88f8	-0.0462732
26	0x3da27a81	0.07933522
27	0xbe08da20	-0.13364458
28	0xbe2781c4	-0.16358095
29	0xbdf9922f	-0.121860854
30	0x3cd6bf0e	0.026214149
31	0xbcd45dca	-0.025923628
32	0xbc49330a	-0.012280235
33	0xbad32b55	-0.0016110936
34	0x3dfaf3d2	0.12253536
35	0x3da79ef5	0.081846155
36	0xbcc740fc	-0.02432298
37	0xbdf9c895	-0.12196461
38	0x3d65108e	0.05592399
39	0x3d160468	0.036625296
40	0x3d79c576	0.06097933
41	0xbd1d13f4	-0.038349107
42	0xbdc5f3a1	-0.09665609
43	0x3d66ffa2	0.056396134
44	0x3e0f5e87	0.14000903
45	0x3da75060	0.08169627
46	0xbcb462af	-0.022019712
47	0xbd8ce12a	-0.06878884
48	0x3b022e3d	0.0019863986
49	0xbd23b9d9	-0.03997216
50	0xbe01923b	-0.12653439
51	0xbddae44c	-0.106880754
52	0xbe16ab2c	-0.14713734
53	0x3e16c3b8	0.14723098
54	0xbdcd6be2	-0.10030343
55	0x3d72e139	0.05929682
56	0xbdda46b2	-0.10658015
57	0xbdc08f47	-0.09402328
58	0xbda15ca7	-0.07879
59	0xbdd25343	-0.10269787
60	0xbd9c9d75	-0.0764722
61	0x3e1baead	0.15203352
62	0xbd84f0c3	-0.06491234
63	0xbe099220	-0.13434649
64	0x3d97bde8	0.074092686
65	0x3daf8772	0.08570756
66	0xbdf102ae	-0.11768089
67	0xbde2de5d	-0.11077569
68	0xbd8e336b	-0.06943401
69	0x3e2bdcb0	0.16783404
70	0xbe3a4161	-0.18189003
71	0x3d8fcbfc	0.07021329
72	0xbc0f9a99	-0.008764886
73	0xbd22ea99	-0.03977451
74	0x3d29fef1	0.041502897
75	0xbcdcf68a	-0.026973028
76	0xbdaa6592	-0.08320154
77	0xbe15095d	-0.14554353
78	0x3debf8cd	0.11522064
79	0x3e1dba23	0.15403037
80	0xbdd2fb88	-0.10301882
81	0xbc8f14de	-0.017466005
82	0xbe071766	-0.1319252
83	0x3ddb4ccb	0.107080065
84	0x3d02fc32	0.031978793
85	0x3c57b6ce	0.013166143
86	0xbdbcba03	-0.092151664
87	0x3d88e764	0.06684759
88	0x3e28f236	0.16498646
89	0x3cb4654a	0.022020955
90	0xbc7c5cbe	-0.015402971
91	0x3e2d3181	0.16913415
92	0xbc868519	-0.016420888
93	0x3dd2f62a	0.10300858
94	0xbe19ca1c	-0.15018505
95	0x3d7b6417	0.06137475
96	0xb9e98eab	-0.0004454752
97	0x3d9cfb22	0.07665087
98	0xbe170ea5	-0.1475168
99	0xbdde50cd	-0.10855255
100	0xbdf5d4d6	-0.12003486
101	0x3d0fdc86	0.035122417
102	0x3ca0b28b	0.019616386
103	0xbda62e6b	-0.08114322
104	0xbdcf600f	-0.101257436
105	0xbd3c43b9	-0.045963023
106	0x3db71576	0.0893964
107	0x3d05744b	0.03258161
108	0x3e0ab247	0.1354457
109	0x3d24536f	0.04011863
110	0x3de7a4f8	0.11310762
111	0x3c245e21	0.010032208
112	0xbe0ab879	-0.13546933
113	0x3dad49ae	0.08461319
114	0xbad38c05	-0.0016139752
115	0x3da79da4	0.081843644
116	0xbba5321c	-0.005041374
117	0x3db0fd9e	0.08642124
118	0xbe234aa7	-0.15946446
119	0xbe3490a9	-0.17633308
120	0xbc74127c	-0.014896985
121	0xbdffaedf	-0.12484526
122	0xbddfd6fe	-0.109296784
123	0x3dc5516e	0.09634672
124	0xbc827976	-0.015927058
125	0x3d4af4ea	0.049549975
126	0xbdaa4436	-0.083137915
127	0xbda3eba3	-0.080039285
128	0x3d07a26c	0.033113882
129	0x3e260b55	0.1621526
130	0xbd5a4947	-0.05329254
131	0xbe08f664	-0.1337524
132	0xbd399c53	-0.045315098
133	0xbdf7465e	-0.12073968
134	0xbc9b5de3	-0.018965667
135	0x3acf7193	0.0015826694
136	0x3dfbd704	0.1229687
137	0xbc2979ac	-0.01034395
138	0x3df7e913	0.12105002
139	0xbd085a2c	-0.03328912
140	0x3dffa673	0.124829195
141	0xbe0bf47d	-0.13667484
142	0xbe2b7961	-0.16745521
143	0x3d7f00df	0.06225669
144	0xbd3a5695	-0.045492727
145	0xbb5e0de5	-0.0033882794
146	0xbe058693	-0.13039617
147	0x3e26c9b8	0.16287887
148	0xb9775d59	-0.0002359053
149	0xbd87f5a1	-0.06638647
150	0xbe1196bc	-0.14217657
151	0xbe1f2616	-0.15541872
152	0xbc504864	-0.012712572
153	0x3db8c0ad	0.09021125
154	0x3d8bec17	0.0683214
155	0xbdc5c195	-0.096560635
156	0xbca9c4e1	-0.020723762
157	0x3d3f0208	0.046632797
158	0xbda26a3a	-0.07930417
159	0xbdf11551	-0.11771644
160	0x3d94d1cf	0.0726658
161	0x3d88b87b	0.06675812
162	0x3c9fbc92	0.019499097
163	0x3dd2ddbc	0.10296199
164	0xbd8bf118	-0.06833094
165	0xbe10e858	-0.14151132
166	0x3c663a12	0.014051931
167	0xbd7de03b	-0.06198142
168	0xbca41de8	-0.020033792
169	0xbc5bedb3	-0.013423371
170	0x3dfe23f8	0.12409204
171	0x3de370a6	0.1110547
172	0x3dfc26e4	0.12312105
173	0xbd101970	-0.03518051
174	0x3d59feeb	0.053221624
175	0xbd304b9e	-0.043040864
176	0xbdd9bc55	-0.106316246
177	0x3c1065f7	0.008813373
178	0x3df9f199	0.12204284
179	0xbd50f5cb	-0.051015656
180	0x3db4bcc4	0.08825067
181	0x3d8b908b	0.06814679
182	0x3e03653e	0.1283159
183	0xbe2c0b25	-0.16801126
184	0xbdbf2aac	-0.09334311
185	0xbce03050	-0.027366787
186	0xbd7c7488	-0.06163457
187	0x3d86388f	0.065537564
188	0xbc37a97d	-0.011209843
189	0xbda09555	-0.07840983
190	0xb9cf68a8	-0.00039560092
191	0x3d5c9bc3	0.053859483
192	0xbe19317f	-0.14960288
193	0xbdaed47d	-0.08536623
194	0xbddd5bd9	-0.10808534
195	0xbd89ec71	-0.06734551
196	0xbdf14c25	-0.117821015
197	0x3c30df92	0.010795491
198	0x3e0a1035	0.13482745
199	0xbd66f5a7	-0.056386616
200	0xbdca2b82	-0.0987158
201	0xbdcf62f7	-0.10126298
202	0x3d568989	0.052377257
203	0x3cbd7fdc	0.023132257
204	0x3dcb961f	0.09940743
205	0x3c9d6f77	0.01921819
206	0xbdf27ce7	-0.118402295
207	0x3d9f1e58	0.077694595
208	0xbddf8484	-0.10913947
209	0xbdf91ec0	-0.12164068
210	0x3db65c2f	0.089043014
211	0x3d20cb9c	0.039256677
212	0xbe3061d8	-0.17224824
213	0xbd3ce203	-0.04611398
214	0xbdd938b0	-0.106065154
215	0x3df3c238	0.11902279
216	0x3dca6304	0.09882167
217	0x3db303bd	0.087409474
218	0x3df494bb	0.119424306
219	0x3d6289e7	0.055307295
220	0xbdb2862d	-0.08716998
221	0xbe0e3f1e	-0.13891265
222	0xbe27b9df	-0.16379498
223	0xbd4ac9be	-0.049508803
224	0x3e1eec83	0.1551991
225	0xbdc3d35e	-0.095617995
226	0xbd152544	-0.036412492
227	0xbdc73c29	-0.097282715
228	0x3d012967	0.031533625
229	0x3d6c965b	0.057760578
230	0xbcf10436	-0.029420953
231	0xbe0974d8	-0.13423479
232	0xbcd69a97	-0.026196761
233	0x3d4819ae	0.048852615
234	0x3dd114a2	0.102090135
235	0x3d555852	0.052086182
236	0x3be3aa65	0.006947803
237	0xbdcbd5cc	-0.09952888
238	0xbccb7b9e	-0.024839219
239	0xbdac9a02	-0.08427812
240	0xbdad11b2	-0.08450641
241	0x3dfe10f5	0.12405578
242	0xbe2a0729	-0.16604294
243	0xbe36eb54	-0.17863208
244	0x3dd27910	0.10276997
245	0x3dea2bfb	0.1143417
246	0x3e05a512	0.1305125
247	0x3e23a2b6	0.15980038
248	0x3cf90ac2	0.030400638
249	0xbd59099d	-0.052987684
250	0x3cdc7b77	0.026914341
251	0x3d5a1a05	0.05324747
252	0x3dc56b28	0.09639579
253	0x3cb0bb07	0.021573557
254	0x3d3602f5	0.044436414
255	0xbd46ff51	-0.048583332

fc.0.bias f4 [256]
0	0x3e02fe02	0.12792209
1	0xbc8235ac	-0.015894733
2	0x3d1c7c04	0.038204208
3	0x3e1ec3ed	0.15504427
4	0xbd16f021	-0.0368501
5	0x3ddf160d	0.10892878
6	0x3dd90913	0.10597434
7	0x3e137f92	0.14404133
8	0x3e4590b5	0.19293483
9	0xbd0d638c	-0.034518763
10	0x3a89914c	0.0010495572
11	0x3dc12651	0.094311364
12	0x3db18b31	0.08669127
13	0x3d144aa2	0.036203988
14	0x3cf9638e	0.03044298
15	0x3d60bdc0	0.05486846
16	0xbc7c63ce	-0.015404655
17	0x3d42897a	0.04749439
18	0x3cd76a5c	0.026295833
19	0xbd3bd445	-0.045856733
20	0x3ceb4d1e	0.028723296
21	0x3db34dd4	0.08755079
22	0x3e0d9886	0.13827714
23	0x3dc744d8	0.09729928
24	0xbd8f26c4	-0.06989816
25	0x3e07130b	0.13190858
26	0x3d29a140	0.041413546
27	0x3e1e76b3	0.15474968
28	0x3a96317d	0.001145884
29	0x3d93c602	0.07215501
30	0xbc0fbc11	-0.008772866
31	0x3dae83d2	0.085212365
32	0x3db3b4e1	0.08774734
33	0x3befd8f8	0.007319566
34	0x3e2e29b7	0.170081
35	0xbcb56750	-0.02214399
36	0x3ca1dd57	0.019758863
37	0x3d8676c4	0.065656215
38	0xbcb3f2b1	-0.02196631
39	0x3e381f44	0.17980677
40	0xbd0f9393	-0.035052847
41	0x3e403e05	0.18773659
42	0xbc215846	-0.009847706
43	0x3e2ccd03	0.16875081
44	0x3d20d926	0.03926959
45	0x3d8f42dd	0.06995175
46	0x3ddd491c	0.1080496
47	0x3e48c57c	0.19606584
48	0x3dc33e4b	0.09533366
49	0x3d6da5d6	0.05801948
50	0x3dcd9637	0.10038417
51	0x3e2d0f34	0.16900331
52	0xbd82a879	-0.0637979
53	0x3d87188d	0.065964796
54	0x3e513547	0.2043048
55	0x3dd6cd48	0.10488373
56	0x3e045d90	0.12926316
57	0x3e2c0561	0.16798927
58	0x3e103fce	0.1408684
59	0x3e00fcf8	0.125965
60	0x3d273c23	0.040828835
61	0x3e0356a9	0.12826027
62	0x3cdcb93b	0.026943794
63	0xbc8bc7fe	-0.017063137
64	0xbd2f63f3	-0.04281993
65	0x3d00c955	0.031442005
66	0xbc2c3c21	-0.010512383
67	0x3da2e0b8	0.07953018
68	0x3df47389	0.11936099
69	0x3e43a5a5	0.19106157
70	0xbd465f87	-0.048430946
71	0x3caf58fd	0.021404738
72	0x3dc83c91	0.09777177
73	0xbcd15c36	-0.025556665
74	0x3e40f246	0.1884242
75	0xbd5ff18b	-0.054673713
76	0x3dd92939	0.10603566
77	0x3c535b6b	0.012900214
78	0x3e2f93fa	0.17146292
79	0x3d066604	0.032812133
80	0xbce57e82	-0.028014425
81	0xbcdd1769	-0.026988702
82	0x3c7e76ce	0.015531255
83	0x3e26e09b	0.16296618
84	0x3d35167f	0.044210907
85	0x3dae170b	0.08500489
86	0x3dbcb090	0.09213364
87	0x3c96a60f	0.01838973
88	0xbd00bdfb	-0.03143118
89	0x3e3560c6	0.17712697
90	0x3e1c2b40	0.15250874
91	0x3b052a6c	0.0020319475
92	0x3bd2f0a2	0.006437377
93	0x3d84ac8b	0.064782225
94	0xbb034ebb	-0.002003594
95	0x3c23b927	0.009992874
96	0xbd29039e	-0.041263215
97	0xbceb90bc	-0.028755538
98	0x3dbc0d08	0.09182173
99	0xbcbe66f5	-0.023242453
100	0x3e0f3ad8	0.13987291
101	0x3db812f1	0.08987988
102	0x3e2fea47	0.17179213
103	0xbd70c12e	-0.05877798
104	0x3d87c0a8	0.06628543
105	0xbc705bce	-0.014670325
106	0x3b8f43d2	0.0043720985
107	0x3e1fa5ee	0.15590641
108	0x3d9cea74	0.07661906
109	0x3bb80740	0.0056160986
110	0x3d759157	0.05995306
111	0x3dbe9ef2	0.0930766
112	0x3d8cec21	0.068809755
113	0x3bab18dd	0.00522147
114	0x3d59eab4	0.053202346
115	0x3d2149da	0.03937707
116	0x3e0b0485	0.13575943
117	0x3e0ae2ca	0.13563076
118	0x3e27e89d	0.16397329
119	0x3dc5717b	0.09640785
120	0x3d9da986	0.0769835
121	0xbd696827	-0.056984093
122	0x3dcd5154	0.10025278
123	0xbc9a8ca7	-0.018865896
124	0x3dba46ee	0.0909556
125	0x3c2f97d4	0.010717351
126	0x3e452a87	0.19254504
127	0xbca3abc8	-0.019979373
128	0x3e2dbd20	0.16966677
129	0x3d9b9cd3	0.07598271
130	0x3e2943eb	0.16529815
131	0x3d8164fd	0.0631809
132	0x3c9c9dd1	0.019118221
133	0x3dd79b72	0.10527696
134	0x3e236679	0.15957059
135	0x3dbc6d89	0.0920058
136	0x3e2370aa	0.15960947
137	0x3da40257	0.08008259
138	0x3c84eaa5	0.016225168
139	0x3b35ede2	0.0027760197
140	0xbd38e123	-0.045136582
141	0x3dd41d84	0.10357192
142	0x3e492943	0.19644646
143	0x3d75cf82	0.060012348
144	0x3e117dfd	0.14208217
145	0x3e252a9f	0.1612954
146	0x3e044920	0.1291852
147	0x3e558c2b	0.20854251
148	0x3df6bfc1	0.12048293
149	0x3e2f0340	0.17091084
150	0x3d95bb1a	0.073110774
151	0x3db8c307	0.090215735
152	0xbb910a61	-0.004426286
153	0x3c92b2f8	0.017907605
154	0x3da1df81	0.07903958
155	0x3da6a9c9	0.08137853
156	0x3c98f4a7	0.018671347
157	0x3e535738	0.2063874
158	0xbb9949a4	-0.004677968
159	0x3db93804	0.09043887
160	0xbc8c0da0	-0.01709634
161	0x3e1a4bc9	0.15067972
162	0x3e04b470	0.12959456
163	0xbc7228ef	-0.014780267
164	0xbd7ead05	-0.062176723
165	0x3e36ebae	0.17863342
166	0x3d93c5bc	0.07215449
167	0xbb4231f7	-0.0029631832
168	0x3c288c63	0.010287377
169	0x3e5a73ca	0.21333233
170	0x3dadc0fc	0.084840745
171	0x3d53cc71	0.051708642
172	0x3d9affd5	0.07568327
173	0x3e30b962	0.17258218
174	0x3dc59c13	0.096489094
175	0x3dade52b	0.08490976
176	0xbb109e5c	-0.0022067046
177	0x3d475c42	0.04867197
178	0xbd27e924	-0.040993825
179	0x3a9dbaec	0.0012033856
180	0x3e09d767	0.13461076
181	0x3d15fe6e	0.036619596
182	0x3e01aa79	0.12662686
183	0x3e09438b	0.13404672
184	0x3d897496	0.0671169
185	0x3e41679e	0.18887183
186	0x3e4ac0c9	0.19800104
187	0x3cda1a4a	0.026623864
188	0xbc78c020	-0.015182525
189	0x3dc1d99b	0.09465333
190	0xbcde72bb	-0.027154317
191	0xbb78526e	-0.0037890929
192	0x3e4fd3f5	0.20295699
193	0xbce3c5a7	-0.027804209
194	0xbc2de846	-0.01061446
195	0x3e3a2b1a	0.18180504
196	0x3e35c0f6	0.1774939
197	0xbc9f8319	-0.019471692
198	0x3e2ce359	0.16883601
199	0x3dd20de6	0.10256557
200	0xbd2c3d2c	-0.042050526
201	0x3e2848b6	0.16433987
202	0x3e381594	0.17976981
203	0x3df5b904	0.119981796
204	0x3e097e64	0.1342712
205	0x3e430197	0.19043575
206	0x3d274ee0	0.040846705
207	0xbb01111f	-0.0019694043
208	0x3e18a2f0	0.14905906
209	0xbd4c2b8e	-0.049846224
210	0x3aa1892c	0.0012324206
211	0x3df67ff4	0.12036124
212	0x3dfaad8a	0.12240131
213	0x3e41e573	0.18935184
214	0x3de28694	0.11060825
215	0x3dcb61e8	0.099307835
216	0x3e3fc1a0	0.18726206
217	0x3e32a241	0.17444707
218	0xbcd97305	-0.026544103
219	0x3dbb9b24	0.0916045
220	0xbd2825ca	-0.041051663
221	0x3d1aea3d	0.037821043
222	0x3e4eeb96	0.20207056
223	0x3e0ad15b	0.13556425
224	0x3c7adc98	0.015311383
225	0x3df7c9f3	0.12099066
226	0x3e14e8eb	0.14541976
227	0x3de2f606	0.110820815
228	0x3d6c409e	0.05767881
229	0x3e2fee96	0.17180857
230	0xbb2205aa	-0.0024722614
231	0x3d889825	0.06669644
232	0x3daeec82	0.08541204
233	0xbceb9683	-0.028758293
234	0x3b153deb	0.0022772502
235	0x3d67d997	0.056603994
236	0x3bd5a81f	0.0065202857
237	0xbcbbc563	-0.02292127
238	0x3ce6a68e	0.028155591
239	0x3e054b36	0.13016972
240	0x3dbf6e0f	0.09347164
241	0x3db8074e	0.08985768
242	0x3dfa04f9	0.1220798
243	0x3e21b6cd	0.15792389
244	0x3e0564a6	0.13026676
245	0x3cc9493c	0.024571054
246	0x3e245ea8	0.16051733
247	0x3df80e97	0.12112158
248	0xbc88edf3	-0.016715026
249	0x3d985473	0.074379824
250	0x3e0e0d3c	0.13872236
251	0x3e3d2d1d	0.1847424
252	0x3e3ad5e3	0.18245654
253	0x3d5ae11f	0.05343735
254	0x3e1e69a4	0.15469986
255	0xbd33d37d	-0.043902863

fc.2.weight f4 [100, 256]
0	0xbd444406	-0.047916435
1	0x3d928b7f	0.07155513
2	0xbdd36776	-0.10322468
3	0x3d0fdd25	0.03512301
4	0x3dbed650	0.093182206
5	0xbc9c180e	-0.019054439
6	0x3d09b976	0.033624135
7	0xbd69695d	-0.056985248
8	0xbd8685f7	-0.065685205
9	0xbe0067fa	-0.12539664
10	0x3d9c4936	0.076311514
11	0xbdb7d648	-0.08976418
12	0x3da58f60	0.08083987
13	0xbb20f610	-0.0024560727
14	0xbd7950d6	-0.060868107
15	0xbdba376a	-0.09092601
16	0xbd8f560d	-0.06998835
17	0xbd96143c	-0.07328078
18	0x3b9a2434	0.004704023
19	0x3d71c386	0.059024356
20	0x3dd0d552	0.101969376
21	0xbd7b63b3	-0.061374377
22	0xbd0060e3	-0.0313424
23	0xbdd52ca4	-0.10408905
24	0xbcbd09b2	-0.023075912
25	0xbd2e1579	-0.042500947
26	0x3bd933a7	0.006628472
27	0xbdf9f969	-0.12205774
28	0xbbc9de32	-0.006160521
29	0xbdaff763	-0.08592107
30	0xbcd43606	-0.025904667
31	0xbcb70b04	-0.02234412
32	0xbd602d97	-0.054730978
33	0xbdd647b2	-0.104628935
34	0xbca5297a	-0.02016138
35	0xbe014a0a	-0.126259
36	0x3d916f6d	0.07101331
37	0xbd3d3611	-0.04619414
38	0x3db6fe47	0.08935218
39	0xbdf69673	-0.12040415
40	0x3c747250	0.014919832
41	0xbc830d05	-0.01599742
42	0xbdc05df0	-0.09392917
43	0xbdcb8346	-0.09937148
44	0xbdf41e67	-0.11919861
45	0xbda7d652	-0.08195175
46	0xbb9b9687	-0.004748169
47	0xbd887dbf	-0.06664609
48	0xbd9ba142	-0.07599117
49	0xbdfa845b	-0.12232276
50	0x3d307f9a	0.04309044
51	0xbd02e549	-0.031956945
52	0xbdeb9676	-0.115033075
53	0xbce97139	-0.028496372
54	0x3d9fd25e	0.07803796
55	0xbdd7e878	-0.10542387
56	0x3da40797	0.0800926
57	0x3d81c499	0.06336326
58	0xbd708e37	-0.058729377
59	0x3dacc07f	0.08435153
60	0xbd5a3b85	-0.05327942
61	0x3c9515e3	0.018198913
62	0x3da25bf0	0.07927692
63	0xbe0443ba	-0.1291646
64	0x3c89bef1	0.01681468
65	0xbd8a1eac	-0.067441314
66	0xbe0e094f	-0.13870738
67	0x3c86f491	0.01647404
68	0xbde30f4e	-0.110869035
69	0xbd03c4d8	-0.032170147
70	0xbe090b2b	-0.13383166
71	0x3d91770c	0.071027845
72	0xbdebf31c	-0.11520979
73	0xbd5b18f7	-0.053490605
74	0x3cdd3fad	0.027007902
75	0x3dac2145	0.08404783
76	0xbe15c18e	-0.14624617
77	0xbdd8e6b8	-0.10590881
78	0xbd77dec5	-0.060515184
79	0xbc287238	-0.010281138
80	0xbdb1ccba	-0.086816266
81	0xbdde2084	-0.108460456
82	0xbdf2997a	-0.118456796
83	0xbd86ad70	-0.06576049
84	0xbd250595	-0.040288527
85	0xbd0749b7	-0.033029284
86	0x3c70c546	0.014695471
87	0x3c118e18	0.008883975
88	0xbe06f9b2	-0.13181189
89	0xbce44230	-0.027863592
90	0x3d653ddc	0.055967197
91	0xbc3ef659	-0.011655414
92	0xbde6be7f	-0.11266803
93	0xbd6e4f08	-0.05818084
94	0x3bf1306b	0.007360508
95	0x3d2adc8a	0.04171423
96	0xbc3cc5dc	-0.011521783
97	0x3d0c012f	0.034180816
98	0xbd064684	-0.032782093
99	0xbe0b0b6f	-0.1357858
100	0xbcec020e	-0.028809574
101	0x3dab13e2	0.08353402
102	0xbe176246	-0.14783582
103	0x3c32cf14	0.010913629
104	0xbceaedf9	-0.028677927
105	0x3d3cd9a1	0.046105985
106	0xbde71b37	-0.11284488
107	0xbd2fde59	-0.042936657
108	0x3dbd888f	0.09254562
109	0x3d88e727	0.06684714
110	0xbd8e1e18	-0.06939334
111	0xbdac09e9	-0.08400328
112	0xbe094161	-0.13403846
113	0xbddd5c6e	-0.10808645
114	0xbcca707b	-0.024711838
115	0xbe00ed3a	-0.12590495
116	0xbd56bef2	-0.052428193
117	0xbdb8fd30	-0.09032667
118	0x3cad0fb6	0.021125656
119	0xbc4b5f2f	-0.01241283
120	0xbc9a1a09	-0.018811243
121	0xbde579bf	-0.11204862
122	0xbe1bb131	-0.15204312
123	0xbd3775aa	-0.044789948
124	0x3c0db7c2	0.008649768
125	0xbdaea755	-0.0852801
126	0xbdd56e10	-0.104213834
127	0xbe0b7997	-0.13620602
128	0xbe025dcd	-0.12731095
129	0x3da8f9d7	0.08250778
130	0xbe061d14	-0.1309703
131	0xbdb4ab24	-0.08821705
132	0xbdea7cc2	-0.11449577
133	0xbdaf5d99	-0.08562774
134	0xbe02364b	-0.12716024
135	0xbd91ed8a	-0.07125385
136	0x3ac820e3	0.001526859
137	0x3c95c022	0.018280093
138	0xbcc4453f	-0.0239588
139	0x3da312ee	0.07962595
140	0x3cc9de3d	0.024642104
141	0xbcd8ba6f	-0.026456086
142	0xbe12996c	-0.14316338
143	0xbd11c6ea	-0.03559009
144	0x3ccacc9c	0.024755768
145	0x3d85b0c9	0.0652786
146	0xbdfd70c2	-0.123750225
147	0xbd6ef058	-0.05833468
148	0xbd77e12a	-0.060517468
149	0xbd41d540	-0.04732251
150	0x3dbd82b1	0.09253443
151	0x3d7376dd	0.05943953
152	0xbc59dd8c	-0.01329745
153	0xbd0c7197	-0.034288015
154	0xbcc37d7a	-0.023863543
155	0x3d971507	0.073770575
156	0xbd17c9f5	-0.037057836
157	0xbdad5684	-0.08463767
158	0xbd3145d3	-0.04327948
159	0xbdc865a9	-0.09785015
160	0xbd96e18c	-0.073672384
161	0x3cfdd2d8	0.030984327
162	0xbc9c9b2e	-0.019116964
163	0x3da40ab4	0.08009854
164	0xbbd03c3b	-0.0063548363
165	0xbd33e086	-0.043915294
166	0xbde15b80	-0.1100378
167	0xbdb7b79b	-0.08970567
168	0xbd37adf6	-0.044843636
169	0xbcc7f13c	-0.024407022
170	0xbcb3ff4b	-0.02197232
171	0xbdb41e3a	-0.08794828
172	0x3d5a9c8d	0.053371955
173	0xbcc90c9d	-0.024542147
174	0x3b52a1e6	0.0032139956
175	0xbd0465cf	-0.032323655
176	0xbd00e5ef	-0.03146928
177	0xbd104496	-0.03522166
178	0x3dc757f1	0.0973357
179	0xbda09999	-0.078417964
180	0xbd9b9b26	-0.075979516
181	0x3d987e43	0.074459575
182	0x3a3c078f	0.0007172757
183	0xbd8dc844	-0.06922963
184	0x3cf2b639	0.029627906
185	0x3da1300b	0.078704916
186	0xbd96de1b	-0.07366582
187	0xbd0c86da	-0.034308292
188	0x3d2a5558	0.041585296
189	0x3c09e0a9	0.00841538
190	0xbd3b8efa	-0.04579065
191	0xbd4b2d1c	-0.049603567
192	0x3d8e6f1f	0.069547884
193	0xbd53f83a	-0.0517504
194	0xbd7c9428	-0.06166473
195	0xbe04d120	-0.129704
196	0xbda17838	-0.07884258
197	0x3dafcf9b	0.085845195
198	0xbe13f1e3	-0.14447741
199	0xbdc72030	-0.09722936
200	0x3ce469b2	0.02788243
201	0xbc87f60e	-0.01659682
202	0x3c8f64d8	0.01750414
203	0xbddc0c17	-0.107444935
204	0xbdddfdb8	-0.10839409
205	0x3ca96e91	0.020682605
206	0x3cfdeb48	0.03099598
207	0x3dae7a2b	0.085193954
208	0xbd34e005	-0.044158954
209	0xbdc2ff72	-0.095213786
210	0xbdc93a70	-0.09825599
211	0x3c7733eb	0.015088062
212	0x3cc7f13d	0.024407024
213	0xbdd3c750	-0.1034075
214	0xbdc5bd9c	-0.09655306
215	0x3d5ec7a7	0.054389622
216	0xbd9d9154	-0.07693735
217	0x3d9c484a	0.076309755
218	0xbe0d16ca	-0.13778225
219	0xbdd15e7f	-0.10223102
220	0xbce08c17	-0.02741055
221	0x3c1aa877	0.009439579
222	0xbdbf8479	-0.09351439
223	0xbb006e0e	-0.0019596848
224	0x3d9e92f9	0.077428766
225	0xbdb92f0f	-0.09042179
226	0xbe089ba1	-0.13340618
227	0x3c12cfcb	0.0089606745
228	0xbd090cd6	-0.033459507
229	0x3d5e2938	0.054238528
230	0xbe0109d5	-0.12601407
231	0xbce14450	-0.027498394
232	0x3d5446f6	0.051825486
233	0x3d21b399	0.03947792
234	0xbdb6c59f	-0.08924412
235	0x3cfe500e	0.031044032
236	0xbd657a4d	-0.05602484
237	0xbd46eeab	-0.048567455
238	0x3c479d22	0.0121834595
239	0xbda6bf56	-0.08141963
240	0xb9c6d1e3	-0.0003792188
241	0xbdb74603	-0.089489006
242	0xbdd92023	-0.10601833
243	0x3d844fa0	0.064605
244	0xbb9b0629	-0.004730959
245	0xbe01d14e	-0.126775
246	0x3d7bf537	0.061513152
247	0xbd8dfb40	-0.06932688
248	0xbd97a8d8	-0.07405251
249	0xbd58c33b	-0.05292056
250	0xbcad315e	-0.021141704
251	0x3d8000ab	0.062501274
252	0x3d676de4	0.056501284
253	0xbdc803fc	-0.09766385
254	0x3c21ab2c	0.009867471
255	0xbd30c346	-0.043154977

fc.2.bias f4 [100]
0	0x3d2d5cd3	0.042324852
1	0x3d07f1bf	0.03318953
2	0x3c88f062	0.016716186
3	0x3daae675	0.083447374
4	0x3d4dbfa2	0.050231583
5	0x3cd42bf3	0.025899863
6	0x3d787bcf	0.060664948
7	0x3d11e536	0.035618983
8	0x3c295aa3	0.010336551
9	0xbd4fed2e	-0.0507633
10	0x3d726593	0.0591789
11	0x3cccc2c7	0.02499522
12	0x3d31e1e2	0.04342831
13	0x3cc9c596	0.02463035
14	0xbc74c22b	-0.014938871
15	0xbd2aa940	-0.041665316
16	0x3d8e626d	0.06952367
17	0x3c8e9762	0.01740617
18	0x3d463d57	0.048398342
19	0x3d59fd67	0.05322018
20	0xbd0c93fa	-0.03432081
21	0x3d67fc81	0.05663729
22	0x3d81d3d8	0.06339234
23	0xbd928a66	-0.07155304
24	0x3c6bb661	0.014386744
25	0x3d74bcde	0.05975043
26	0x3cabb018	0.020957991
27	0xbd25ad3e	-0.04044842
28	0xbd1a8cdf	-0.037732
29	0xbcf7248f	-0.0301688
30	0xbb14029f	-0.002258457
31	0xbc01f882	-0.007932784
32	0xbb5e3775	-0.0033907567
33	0xbca4b15e	-0.020104107
34	0x3b0cc581	0.0021480026
35	0x3d2f3413	0.04277427
36	0x3d0127dc	0.031532153
37	0x3d31e3df	0.043430205
38	0xbd4bd43a	-0.049762942
39	0x3b060ff3	0.0020456284
40	0x3a223ab2	0.0006188556
41	0xbce4ba66	-0.027920913
42	0xbd19f5a9	-0.037587795
43	0xbd5893d5	-0.05287536
44	0x3c77592d	0.015096945
45	0xbd38261b	-0.044958215
46	0xbc2321e4	-0.009956811
47	0x3b5fe192	0.003416155
48	0x3c0808d3	0.008302885
49	0xbd78d263	-0.060747515
50	0xbd3097a3	-0.043113362
51	0xbd9eaf55	-0.07748286
52	0xbc094d39	-0.008380228
53	0x3cbd43d2	0.023103628
54	0x3ce34c22	0.027746264
55	0x3d2ea8a3	0.042641293
56	0x3cfdbfc3	0.030975228
57	0x3d5f660e	0.054540686
58	0xbd560b25	-0.052256722
59	0x3c1350c4	0.008991424
60	0xb9985be3	-0.0002906016
61	0x3c87d3d3	0.016580498
62	0xbd22c7fc	-0.0397415
63	0xbc990d83	-0.0186832
64	0xbd6b034d	-0.057376195
65	0x3d24cd6d	0.04023497
66	0x3d280f63	0.0410303
67	0xbd2db406	-0.04240801
68	0xbbe24635	-0.006905342
69	0xbd15544f	-0.036457356
70	0x3c1762a8	0.00923983
71	0xbd9d93e1	-0.07694221
72	0xbc4d2819	-0.012521767
73	0x3d01ceb2	0.03169126
74	0x3ca8595d	0.020550424
75	0x3d13d17e	0.03608846
76	0xbd714a20	-0.05890858
77	0xbd292ef3	-0.04130454
78	0x3d4d8ff9	0.05018613
79	0xbb73137f	-0.0037090478
80	0xbc94bd87	-0.01815678
81	0xbd42b562	-0.04753626
82	0xbcf6343e	-0.030054208
83	0xbce56ec2	-0.028006915
84	0xbd0996f1	-0.033591215
85	0x3d6981b1	0.05700845
86	0xbd0cf9b9	-0.03441784
87	0xbd501d9c	-0.050809488
88	0xbd77ad09	-0.060467754
89	0xbd82ef30	-0.06393278
90	0xbca3788e	-0.019954946
91	0x3cc6b069	0.02425404
92	0xbd300de1	-0.042981986
93	0x3b8faa24	0.004384296
94	0xbc454914	-0.012041349
95	0x3ccf4ab1	0.02530417
96	0x3c275383	0.010212782
97	0x3cf1ff52	0.029540692
98	0xbc417fe1	-0.011810274
99	0x3cde316e	0.02712318
