DANN/model/domain.ckpt (torch, 234484 bytes, 8 tensors)

fc.0.weight f4 [256, 64]
00000000: b728 8cbd ca11 193d fb16 ff3d 657e bbbd
00000010: 6036 e0bd 0e41 af3d f367 e63d 85f2 da3d
00000020: 8d3a 90bd b985 d93d 7877 93bd d6a8 b5bd
00000030: 6143 50bd 21ca 50bd 8376 dabd e5b7 26bd
00000040: 117f e53d db96 95bd 9146 ec3a b8e5 1f3d
00000050: c405 aabd d116 e0bd c1a3 1abd 1619 4c3d
00000060: 067d c7bc 5f90 5bbd 7e88 c23d 66ed 033e
00000070: 67a3 bdbd a74a e6bd 8d49 17be 1033 ddbd
00000080: 0145 b13d b69c e73d b938 fbbd 626f 6c3d
00000090: a81d 00be 92c9 fcbd c320 e7bd 10fc c63d
000000a0: b592 c8bc 203a a2bd 2451 fc3d 98c5 d13d
000000b0: 571d f93c cdf8 0f3d f15e 493d 260d 08bd
000000c0: e1fa 003e 1655 b7bd fb27 f43c ec52 6fbd
000000d0: db65 b4bd bf5b a93d 93c7 87bd c102 b5bd
000000e0: fe97 f13c f447 063e 386f 0abb fcc3 d4bd
000000f0: 8ee7 c93d 7ba2 823c a7f4 45bd f1e2 183d
00000100: 3b47 a93d 3b8b bd3d 476e 88bd adbb b63c
00000110: c6d6 bebd bd00 763d 6172 8fbc bd2f 023c
00000120: ffac 1ebd 910a ba3d 9804 9e3d e001 b93d
00000130: 6923 353d 9985 793c e4cf 903c 920e 95bb
00000140: 672a f8bd 2c18 edbc 82f5 d63d 25e8 c63d
00000150: 0736 fd3c b384 5ebd f8ab 8d3b 8668 7e3d
00000160: 3b7c 9a3d db01 e8bc a70c aa3d 04c3 bcbc
00000170: 91c7 0939 06c3 043d ecbb 153e 5e43 593d
00000180: 4fad b03d 81f7 013e 48d2 463d be0f ce3d
00000190: 12ad cb3d 8eab a0bc ed4f edbc 92a9 91bd
000001a0: fdba f13a a091 bbbd ccc0 8a3d 3ce5 21bd
000001b0: bdbd 0d3d 23dc dbbd 93a8 a03c 0cc5 373c
000001c0: d2b0 b23d a214 fcbd 1439 60bd c4cd d63d
000001d0: e33e d9bd 68fb 8b3c 1f1c bf3d 3a6c de3c
000001e0: 879d a6bc 25af a5bd 5f7c 803c 4d8e 4fbc
000001f0: e29f f73d 7e0a 16be 742b d23d ae3b e83d
00000200: 29d6 bcbb f6b5 07be 8ff2 713d 3e25 963d
00000210: 4130 373d cb7e 12bc 7064 32be 902d 713d
00000220: 9951 a73b cfde 6e3c d97f 3dbd d9e2 11be
00000230: 2178 33b8 465e 193e 6e8e 3f3d fe2b 36be
00000240: 814e fa3d 136a 903c 01f2 a63d 165b 053e
00000250: e76f 54bd b385 20bd 3c5a 39bc de79 a2bd
00000260: 78a7 02be 0401 e53d 1907 053d 0f3e 433d
00000270: abdc dcbd 3a46 b6bd 6858 01bd 4dd8 0a3d
00000280: d6a0 f13d ea7b de3d 0b54 953c ff9f 333d
00000290: f0bf cfbd cb85 353d f095 14bd 6897 04be
000002a0: 5439 343d bbc2 bdbc 3d3e adbd ba3c 4cbd
000002b0: 7ee0 d7bd 285c 803d 458c 883d 09fa a93c
000002c0: 7d00 953d 12b6 043e 61c4 973d c09c cf3d
000002d0: 61c6 febc 752b b0bd 03a8 733d 9154 053d
000002e0: ba86 8fbd 885a 44bd f724 b13d bafe 4dbd
000002f0: e6cf 07bd 982e 9c3c 3a57 95bd 6b73 973d
00000300: 3b8c c1bc bcce 62bd 50d7 e0bb 6463 31bc
00000310: d60e 0c3d 713f 27bd 86ff 28bd e5d9 a13d
00000320: 2727 6bbd e6d8 34bc f740 fa3d dbfc c13c
00000330: 2cb8 6abd 17f0 c53d d2d5 85bd 9a61 34bd
00000340: 1c3d 84bd 5a16 eb3c ca41 87bc c6c4 393b
00000350: c1a7 103d d12c 31bd f815 45bd 514e 8dbd
00000360: ed1e d4bd 378b 8cbd 41ed 20bd 282c 9d3d
00000370: 1eff f43d f61a 31bd 8ed1 d8bd c6c5 06bd
00000380: 36b8 15bc b166 b4bc c767 e5bd dd31 1f3d
00000390: 5ae1 213c f2c9 8dbc af54 dcbd ce36 91bd
000003a0: 40c4 1cbb c4c4 04be 9fd5 ec3a 0343 86bc
000003b0: 39c4 eebc b87a 9dbd 2cdd c13d 9208 dc3d
000003c0: 00a3 8d3d 73b4 ddbd ea04 09be 8d99 903d
000003d0: 5750 57bd d4bc 273d da88 893c e5f8 aebd
000003e0: 6fe7 713d f0b9 40bb f088 753d c66f bf3d
000003f0: d82c 97bd 207f aebd 2035 eb3c a042 f9bd
-0.06843703 0.03737048 0.12455555 -0.09154967 -0.10947871 0.0855733 0.112502955 0.10690788
-0.07042418 0.10621209 -0.07200521 -0.088700935 -0.050845508 -0.050974015 -0.106671356 -0.04070272
0.112058766 -0.07304164 0.0018026402 0.039037436 -0.08301881 -0.10941852 -0.037753824 0.04982861
-0.024351608 -0.05360448 0.0949869 0.12883529 -0.09259682 -0.112447076 -0.14774151 -0.10800755
0.086557396 0.11309187 -0.12266678 0.05772341 -0.12511313 -0.12343134 -0.11285546 0.09716046
-0.024484018 -0.07921243 0.12320164 0.10242766 0.030409498 0.035149384 0.04916281 -0.033215664
0.12595703 -0.08951776 0.02980422 -0.05842869 -0.0880849 0.08269452 -0.06629863 -0.08838416
0.02949142 0.13113385 -0.002112342 -0.103889436 0.09858619 0.015946617 -0.04832902 0.037325803
0.08265539 0.09255072 -0.06661659 0.022306288 -0.093183085 0.060059298 -0.017510595 0.007945952
-0.0387392 0.09084047 0.0771572 0.09033561 0.044223223 0.015229606 0.017677255 -0.004548856
-0.121174626 -0.02894219 0.10496046 0.09712247 0.030909551 -0.05432577 0.004323479 0.0621114
0.07543226 -0.028321197 0.083031945 -0.02304221 0.00013139682 0.03241255 0.14622468 0.053042762
0.08626806 0.12692071 0.048540384 0.10061596 0.0994512 -0.019613054 -0.028968776 -0.07112421
0.0018442568 -0.09158635 0.06775054 -0.039525256 0.034604777 -0.10735347 0.019611632 0.011216413
0.08725132 -0.12308623 -0.054741934 0.104884654 -0.10607698 0.017087653 0.093315355 0.027151216
-0.020338787 -0.08090047 0.015684305 -0.0126682045 0.12091042 -0.1465244 0.10262194 0.11339508
-0.0057628346 -0.13253006 0.059069213 0.07331322 0.044723753 -0.008941363 -0.17421126 0.058881342
0.0051061627 0.014579489 -0.046264503 -0.14246692 -4.2788804e-05 0.14977369 0.04676669 -0.17790219
0.12222005 0.017628705 0.08151627 0.13023028 -0.05186453 -0.039190006 -0.011313017 -0.079334006
-0.12759197 0.11181834 0.032477472 0.047666606 -0.107842766 -0.089001134 -0.03157845 0.033897687
0.11798255 0.108634785 0.018228551 0.043853756 -0.10144031 0.044317048 -0.036275804 -0.12948382
0.043999985 -0.023164144 -0.08459137 -0.0498626 -0.10540865 0.062675774 0.06667379 0.020749109
0.07275484 0.1296008 0.07410503 0.101373196 -0.031100454 -0.08602039 0.0594864 0.032551352
-0.07008119 -0.0479379 0.086496286 -0.050291754 -0.03315725 0.019065186 -0.07292028 0.07395061
-0.023626437 -0.05537294 -0.0068616048 -0.010826919 0.034193836 -0.040831987 -0.04125931 0.07902888
-0.057410385 -0.011038041 0.12219422 0.023680141 -0.057304546 0.09664934 -0.065349236 -0.044038393
-0.06456968 0.028697181 -0.016510863 0.0028346046 0.035316233 -0.04325563 -0.048116654 -0.06899703
-0.10357461 -0.068624906 -0.039288763 0.07674438 0.11962722 -0.043238603 -0.105868444 -0.032903455
-0.009138158 -0.022021623 -0.112014346 0.038865913 0.009880388 -0.01730821 -0.107583396 -0.07090531
-0.0023920685 -0.12965685 0.0018069035 -0.016389376 -0.0291463 -0.07689422 0.09466013 0.10743822
0.069158554 -0.108254336 -0.13380781 0.070605375 -0.052566852 0.040951565 0.016788889 -0.085435666
0.059058603 -0.0029407702 0.059945047 0.09347491 -0.073816 -0.08520341 0.028711855 -0.12170911

fc.0.bias f4 [256]
00000000: a0a5 2d3d 59cb 6b3d 85c5 52bd 2aa9 a7bc
00000010: b674 093c 1a59 25bb 3bf7 bbbd 272f 323e
00000020: 1862 b7b9 8dd1 e6bc d275 27be f068 24be
00000030: 4700 8cbd 93c2 c2bd 7e12 e2bd 922b 3c3e
00000040: 73df 2bbe b995 24be 0624 b6bd 39f9 3ebc
00000050: 6bed 98bd e380 693d ba95 1fbe 32bf 2b3d
00000060: 2b83 403e e4b2 ddbd 44c1 a1bd dc39 3e3e
00000070: 5507 e2bd 3711 173e 6ffd b73d 3f69 f6bd
00000080: eb86 233e 60a8 9ebd 133d 043e fa7d 563d
00000090: 5273 25be b776 a6bd f1d5 6c3c a522 21be
000000a0: 0514 13be 60ac dcbd 109f 2c3e dcab dbbd
000000b0: 5c12 33be 9606 423e 806f 69bc c61a bbbd
000000c0: 561b 173e 1a83 733d fd36 503e f549 4abe
000000d0: 7e83 abbd 8d3d 3c3e e529 13be 1506 94bc
000000e0: 6ccd 1c3e ea58 95bc a90f 1a3e b735 003e
000000f0: 1638 a53d 7a5b c1bd 1a73 0dbe 9784 4bbe
00000100: 2627 433e 7806 04be 31ec 9dbb 83b0 2cbd
00000110: 6f01 4b3e 8576 66ba 1f50 e23d 57a9 58bd
00000120: b6be ce3d 3613 d93d 02b1 a03d 0a4a 38be
00000130: acf8 363e 5e42 a9bd cfd8 163c 6b2c 08be
00000140: 6f27 e13d 8352 f9bd 0d63 593e d6d7 babd
00000150: 712d 00be 7129 dc3d e3ed a1bd d00e f83d
00000160: 2b51 3a3c a4f7 853c c7a5 303b 17e5 4bbe
00000170: 5142 21be 3487 613e 0a92 c83c 4d7f d9bd
00000180: 58ef 3b3e a37b 12be 15b8 383e e8d0 da3d
00000190: 7347 443e b1b2 d53d 026b 16be d279 0ebe
000001a0: 0d45 c13c 5875 08be 4bfc fe3d b198 243c
000001b0: d7e2 59bc f127 0bbb 3f0f 14bd d3b4 153e
000001c0: 3bc4 19be 12f1 28be da98 18be f580 f2bd
000001d0: 5bd8 00be fe86 303d f5c8 223d f089 c03d
000001e0: 2777 1c3e 4003 ab3c 995f 203e a6f5 203e
000001f0: 77ba 063e e80a e5bd 4196 10bb a79b 3dbc
00000200: 04fd 053e f769 70bd 85c0 1ebe 0ef0 f33c
00000210: 0a2b 413e 7c26 433e 1ad7 043e 41ff 3d3e
00000220: b077 96bd 2446 43be 000e 893d d0b3 00be
00000230: 91f1 f1bd 45b6 4a3c 2a0b 2fbe 57a5 683e
00000240: 2ca4 a8bd 5af3 72bd 9b5c 27be 81b9 153e
00000250: d967 e63d 7239 8cbd d44a df3d f457 36be
00000260: 9853 1fbe f34b ee3c d8e6 40be 33bc 303c
00000270: 4e2f 343e 9cdd fcbd c319 103d 1193 54bd
00000280: 2219 13be cbf9 cc3c ea2e db3d e58e 153e
00000290: 58c7 c2bd e643 38be 804c d3bc e114 dabd
000002a0: 32ed a9bc 782e 4bbe 90b4 0bbe c542 453e
000002b0: ac65 5e3d 7a1f fdbd 61d9 09be d563 623e
000002c0: cc6d 373e 3838 6f3c 975f 4c3e fd63 a7bd
000002d0: ede5 eebd 604e 8abc 54df 013d 93ec 453e
000002e0: 8ce6 9e3d 31ee 483e 55c4 05be ce1b 6dbc
000002f0: 4957 3abe 75bc 4a3d 4cc9 473e 43c8 a3bd
00000300: 2c92 29be 5e38 14bd 3627 05be c0f6 11bd
00000310: 7b31 3b3e ca3e cabd 6be8 1cbe da0d 653e
00000320: db76 ffbd fc42 22be 0671 d93d ee0b 3c3e
00000330: c4d6 edbd 143d 303e 555a 423e 6f42 e4bd
00000340: ebc5 c33d ad76 5cbd 1183 b7bd 4c9f cabd
00000350: 3ff1 82bd 848c 1fbe 66cf 873d 849a 18be
00000360: ffa2 4ebe 1357 073e 2686 04bd 2c0e 2a3e
00000370: 8482 0b3e ae4c 1bbc ff58 0fbe 3c58 4abd
00000380: 73cb 00bd 1e88 05be c4eb 74bd fe57 23be
00000390: 0f1a 14be 73c3 563e 359f 9c3d 719f 223d
000003a0: 3194 993d da59 e73c cd9f 473d 0be0 ea3d
000003b0: ee46 09be f253 2ebe ba3d 89bd ee08 2b3e
000003c0: 8efc 9abd a358 533e c075 3b3e 84cb d5bd
000003d0: 2376 cebd c775 1a3d 7aeb 31be 3210 343e
000003e0: 6ffc 86bd 5f25 0fbe 77a9 57bd 984a e33d
000003f0: 9123 febc ac10 0d3d a7d1 d2bc 5c41 d3bd
0.04239428 0.057566974 -0.0514579 -0.020466406 0.008389642 -0.002523011 -0.09178015 0.174008
-0.00034977566 -0.028176093 -0.16353539 -0.16055655 -0.068359904 -0.09509768 -0.11038683 0.18375996
-0.16784458 -0.1607274 -0.0889359 -0.011656099 -0.07467159 0.05700768 -0.1558446 0.041930385
0.18800037 -0.10825136 -0.078981906 0.18576759 -0.11036555 0.1475266 0.089838855 -0.12031793
0.15969436 -0.07746959 0.12913923 0.052366234 -0.16157272 -0.08128112 0.0144553045 -0.15735872
-0.14363106 -0.107750654 0.16857553 -0.10726139 -0.17487472 0.18947825 -0.014247775 -0.09135966
0.14756522 0.0594512 0.20333476 -0.19754775 -0.083746895 0.18382855 -0.1437145 -0.018069306
0.15312737 -0.018230874 0.15045036 0.1252049 0.08067338 -0.09441276 -0.13813439 -0.19874798
0.19057903 -0.12893093 -0.004819416 -0.042160522 0.19824766 -0.00087914645 0.11050438 -0.05289587
0.10094969 0.10599367 0.078462616 -0.17996994 0.17868298 -0.08264612 0.009206965 -0.13298194
0.109938495 -0.12173941 0.21229191 -0.09123199 -0.12517335 0.10750092 -0.079067014 0.121122
0.011371891 0.016353436 0.002695428 -0.1991161 -0.15747954 0.22024232 0.0244837 -0.10619984
0.18353021 -0.14304976 0.18038972 0.10684377 0.1916788 0.10434473 -0.14689258 -0.13913658
0.023592496 -0.13326013 0.12450465 0.01004617 -0.013298712 -0.0021233524 -0.036147352 0.1461976
-0.15016262 -0.16498211 -0.14902058 -0.11841003 -0.12582533 0.04309749 0.03974243 0.094013095
0.15279828 0.020875573 0.15661468 0.15718707 0.13157068 -0.11183721 -0.0022062215 -0.011572755
0.13084799 -0.058694806 -0.15503128 0.029777553 0.18864074 0.1905765 0.1297268 0.18554403
-0.07347047 -0.19069725 0.066921234 -0.12568593 -0.11813653 0.012372558 -0.17094103 0.22719322
-0.08234438 -0.05931411 -0.1634392 0.14621545 0.11250276 -0.06846894 0.10902944 -0.17806989
-0.15559232 0.02908895 -0.1883806 0.010787058 0.1759617 -0.12346956 0.03518082 -0.051898066
-0.14365056 0.025021454 0.107023075 0.14605291 -0.09510678 -0.17994651 -0.025793314 -0.106485136
-0.020742986 -0.19841945 -0.13643098 0.19263752 0.05429618 -0.12359519 -0.1346183 0.22108395
0.17912978 0.014600806 0.1995834 -0.08173368 -0.116649486 -0.016883075 0.031707123 0.19328527
0.07758817 0.19622113 -0.13063176 -0.014471961 -0.18197359 0.049496133 0.19510382 -0.07997181
-0.16559666 -0.03618657 -0.13003239 -0.03563571 0.18280594 -0.09875257 -0.15323035 0.22368565
-0.12473842 -0.15845865 0.10617261 0.18363926 -0.11613229 0.172108 0.18979771 -0.11145484
0.09559234 -0.053824116 -0.08960546 -0.09893665 -0.0639367 -0.15580946 0.06631355 -0.14902693
-0.20179366 0.1321681 -0.032354496 0.16606969 0.13624007 -0.009478731 -0.13998793 -0.049400553
-0.031444024 -0.13040206 -0.059795156 -0.15951535 -0.14463066 0.20972995 0.07647554 0.039702836
0.074989684 0.028241087 0.048736382 0.11468514 -0.13405964 -0.1702421 -0.067012265 0.16702625
-0.07567702 0.20639281 0.18306637 -0.10439208 -0.100811265 0.037709977 -0.17374983 0.17584303
-0.06591117 -0.139791 -0.05265185 0.11098212 -0.031022819 0.034439728 -0.025734736 -0.10315201

fc.2.weight f4 [128, 256]
00000000: 5f7e 223d c0a4 273d 9cdf 6a3d 969f 8bbd
00000010: e29b 023c e12a 30bd 7418 7cb9 e2d4 aebc
00000020: cdf1 d0bc 8c5a 0ebd 6e70 1fbc 3ef1 b939
00000030: 504b 423d 0470 113d bb88 703d c326 34bd
00000040: 8a69 0e3d a2c8 443d 8a40 393d a766 6c3c
00000050: 6045 04bd 7d84 093d 3324 b5bc fee5 683c
00000060: 2a51 02bd e457 5fbb 6246 553c b0ef 7dbd
00000070: ad8d 48bd feba 25bb a3fa a83c 71da 9a3d
00000080: d063 8c3c cf95 40bd 0cee 563d 2a74 423d
00000090: db0a 41bc cb92 ae3c 6835 46bd c149 12bd
000000a0: 9cbd 353d fcb2 0cbd 8106 1a3d b69d 8e3d
000000b0: dc6b a93b 1c41 f5bc abd3 cabc 086b 183d
000000c0: 6529 8d3b 7e60 96bc 2d75 22bc e3e8 1b3b
000000d0: b05d 6e3d 84f7 7bbd 2861 8c3d 41ab cb3c
000000e0: 59fe 323d a6ea 933b 0188 57bd d3d1 11bd
000000f0: 2355 08bd 55d9 8f3d 641b fc3c 96d9 0f3c
00000100: badd 013d ac59 49bc 4d93 c4bc 3125 bcbc
00000110: 62aa 22bd 8447 0ebb b262 913b 27e0 e13b
00000120: 975d 18bd 3ea7 3abc fc9d 7ebd 5365 343d
00000130: c9a7 1b3d ccb3 08bd ea88 f5bb 5877 4a3d
00000140: e079 1ebd 6a04 803c 7568 093d 0c80 dabb
00000150: 56cf 27bd 587b 51bc d910 f23b 0bba 743d
00000160: 6d9a 263d de41 283d 502d 7ebd d2ec 1fbd
00000170: 812f 633d 1d17 8fbb 7a94 1e3d 3659 2abc
00000180: e35d a43c 81f5 323c 27ee 85bc c894 ccba
00000190: 9fca 5a3d 4652 10bd 19e5 3e3c 2dfd 533d
000001a0: bef7 db3c 5b73 2a3d 2134 9ebc 7d19 19bc
000001b0: a351 843d 26bd 29bd eb59 7dbc 1b5b 14bd
000001c0: 929d ebbc 1689 9cbb b9fd 803d ce53 56ba
000001d0: 354b 843d 6ca5 6ebc db75 ac3c 606f 9f3c
000001e0: d89e 82bd ecbd e2bc 1f63 143d 9dde 71bd
000001f0: e458 31bd cffe 53bd b8cc 23bd fd3d bf3d
00000200: 2340 11bd 2872 113c 2986 1e3d ed24 8f3c
00000210: cfde 083b a584 97bd 1f9d c6bc b7c7 293d
00000220: 9960 5ebc 3066 a43c 4f53 113d e8f9 483d
00000230: 66de 2a3d f419 1bbc 4a5f 383d 4455 403c
00000240: 6bce 3abd 0fcc e53c 81f5 56bc 09cd 003d
00000250: 25a4 163d d4e6 473d 4b91 803d 0fa8 fe3c
00000260: a662 bbbb 0234 183d d207 433a da2b f2bb
00000270: 92d7 943d 9006 74bc 58e8 3bbd 77a7 433d
00000280: 5924 943d ee9e aabb 463b 37bd 077d 98bd
00000290: c0d9 8bbd 49aa 1cbd 3855 133c 1319 823d
000002a0: bd91 51bd f755 1ebc 77a2 bf3c 6847 fa3c
000002b0: 8055 28bd 1385 25bd 9899 2abc 79da 5fbd
000002c0: c40a 0abd 2eb3 12bd b92a 90bd c862 a5bb
000002d0: 454c 133d 6012 4f3d 8de5 1b3d 8116 bdbd
000002e0: 1c47 d73c ef20 3abd 011a e8bc 84d3 3ebd
000002f0: dac0 1b3d 399e 693d 300d 89bc 3003 bebc
00000300: b26e ff3b b686 1e3d 221a b23b 5ffb 1ebd
00000310: dd08 b03c c939 81bc 0d46 09bd cd35 5e3d
00000320: 974a 1d3c 06e7 6bbc d3c4 2b3c 1827 29bd
00000330: 65a5 2a3d 9f50 22bc 94e7 e83c 53e4 3cbd
00000340: 2433 81bd aaa6 9d3c 3c1a 03bd 4a9a f83c
00000350: a31e 433d 962f 18bc c019 923d 0c79 88bc
00000360: a273 863d 721e 4cbc 5c2d d6bb e247 bebc
00000370: 0930 2abd 17b9 2a3c ff46 d9bc 29c8 0ebd
00000380: d4ce 4fbd 44cd 80bd 6b87 4d3d b319 82bc
00000390: fe1d c83c 20ce ea3c d074 1e3d 0d82 d23c
000003a0: 3fbd 24bd ae51 f6bc 41b5 8a3b 246e 573d
000003b0: 72a6 b93d bbd2 6c3d fd10 afbb f47c 3fbd
000003c0: 65d8 d7bb 7a32 e23c 1128 c0bb 2372 ddbc
000003d0: 0e5f 4a3d 0709 853c ab66 16bd 5ec1 303c
000003e0: f29c 6f3c 2d83 40bc 6903 1bbd afb8 70bd
000003f0: 3a61 1d3d 9683 2fbc 2a47 c83c 8831 903d
0.039671298 0.040928602 0.057342157 -0.06817548 0.007971736 -0.043009643 -0.00024041702 -0.021341745
-0.025505925 -0.03475432 -0.009731395 0.0003546569 0.047435105 0.035507217 0.058724146 -0.04398228
0.03476862 0.0480429 0.045227565 0.014428771 -0.032292724 0.033573616 -0.022111988 0.014214991
-0.031815685 -0.0034079487 0.013017269 -0.061996162 -0.048963238 -0.0025288458 0.020627325 0.07561196
0.017137438 -0.04701787 0.052473113 0.047474064 -0.011782373 0.02131023 -0.048390776 -0.03571487
0.04437028 -0.03435038 0.03760386 0.06963675 0.0051703285 -0.029938273 -0.024759134 0.037211448
0.004307913 -0.018356558 -0.009915632 0.0023789934 0.058194816 -0.061515346 0.068544686 0.024861934
0.043699596 0.0045140563 -0.052619938 -0.035600495 -0.033284318 0.07023875 0.03077478 0.008779904
0.031705596 -0.012289446 -0.02399602 -0.022966953 -0.03971327 -0.0021710107 0.004436814 0.006893176
-0.03719863 -0.011392413 -0.062162384 0.044041943 0.03800181 -0.033374593 -0.007493128 0.04943022
-0.038690448 0.015627105 0.033546884 -0.0066680964 -0.040969215 -0.012785755 0.0073872623 0.059747737
0.040674616 0.04107844 -0.062054932 -0.03904421 0.055465225 -0.004366769 0.038715817 -0.010397246
0.0200643 0.0109227905 -0.016348911 -0.0015608305 0.05341589 -0.035234712 0.011651301 0.05175512
0.026851531 0.041613918 -0.019311966 -0.009344456 0.064608835 -0.04144015 -0.015463333 -0.036219697
-0.028761659 -0.004777084 0.06298394 -0.000817594 0.06459657 -0.014565807 0.021052292 0.019462287
-0.06377953 -0.027678452 0.03622734 -0.05905019 -0.043297663 -0.051756676 -0.039990157 0.09337995
-0.035461556 0.008877315 0.038702164 0.017473662 0.0020884757 -0.07398347 -0.024244843 0.04145023
-0.013572835 0.020068258 0.03547984 0.049066454 0.041716002 -0.009466637 0.04501275 0.011739079
-0.04560701 0.028051404 -0.013120056 0.031445537 0.036777634 0.04880412 0.062777124 0.031085996
-0.005718547 0.037158974 0.0007439825 -0.0073904814 0.07267679 -0.014894143 -0.045875877 0.04776713
0.07233495 -0.005206934 -0.044734262 -0.07445722 -0.06828642 -0.038248334 0.008992486 0.06352439
-0.051164377 -0.00966405 0.023392899 0.030551627 -0.041097164 -0.040410113 -0.010412596 -0.05465171
-0.033701673 -0.03581541 -0.07039399 -0.005047176 0.03596141 0.050554633 0.038060714 -0.09232808
0.026279025 -0.045441564 -0.028332712 -0.046588436 0.038025714 0.05703566 -0.016729921 -0.02319488
0.0077951783 0.03870269 0.005435244 -0.038813945 0.021488601 -0.015774624 -0.03351407 0.054250527
0.009600303 -0.014398342 0.010483938 -0.04129705 0.04166164 -0.009906917 0.028430738 -0.046116184
-0.063085824 0.01924451 -0.03200744 0.030347008 0.04763664 -0.009288689 0.07133818 -0.016659282
0.06565024 -0.012458431 -0.006536169 -0.023227636 -0.041549716 0.010420105 -0.026523111 -0.034858856
-0.050734356 -0.06289151 0.050177973 -0.015881395 0.024428364 0.028662741 0.03868562 0.025696779
-0.04021954 -0.030068245 0.004233033 0.052595273 0.0906495 0.057818156 -0.0053426013 -0.046750024
-0.0065870755 0.02761196 -0.0058641513 -0.027031964 0.049407057 0.016239656 -0.036719006 0.01078829
0.014624821 -0.011750025 -0.03784505 -0.058769878 0.0384228 -0.010712525 0.024447996 0.07040697

fc.2.bias f4 [128]
00000000: 59e1 eabd 3f51 fb3d f9fe 16be 7841 763d
00000010: aaa2 cabd 369d d83d 724e ab3d be92 2cbe
00000020: 33be a0bd 9f82 ab3d f951 a03d 4aa9 f13d
00000030: 3d64 0bbe d295 15be bd7f a0bd 777f 24bd
00000040: cfcf 64bd b4d8 20be 3f6d a33d ca19 be3d
00000050: 1ac7 6b3d 733c afbd 0c29 c0bd 410b 673d
00000060: 7a92 183e a473 02be 2542 d1bd 0540 843d
00000070: 1c91 123e 0aaa 1bbe d1a5 1d3e c1c9 c63d
00000080: d02c f3bd 45cc bb3d 823d df3d 9dd2 1dbe
00000090: c238 15be cbd9 35be 1508 79bd d763 b53d
000000a0: 07c8 e83d bcc5 0e3e e7bf 19be f5bb 903d
000000b0: 4b8e 163e a712 50bd 8dfd 81bd 7cf7 dc3d
000000c0: a027 d1bd b38f 21be 4358 dbbd dde8 473d
000000d0: 0662 b63d 71b9 d93d 21c6 debd 44cb d33d
000000e0: 19e9 bc3d 1c59 07be 541b ad3d 4ce6 8bbd
000000f0: 2897 b33d 3272 023e 26ea 35be a674 c8bd
00000100: aaaf 0abe f37e 2cbe 2a06 c9bd 6669 1abe
00000110: 6796 e6bd 140b 21be 8d0e bf3d 271d 323d
00000120: dc5c a03d 956e 2d3e 0f21 fe3c 3852 99bd
00000130: 2098 7cbd b89b 0cbe 0597 243d 0415 d9bd
00000140: 70b5 b2bd 1241 f23d 7660 41bd f3c7 ef3d
00000150: 0c33 f3bd 02ad 1b3e fc99 e3bd a642 4a3d
00000160: 6e88 01be 9ad9 10be db1d 343e 80df 0d3e
00000170: 6fe5 83bd d980 b93d b203 223e 1115 a93d
00000180: 3bd3 12be e0d0 bc3d 60a9 63bd 6e55 b2bd
00000190: fe53 213e d7d1 bbbd 11a7 f83d be0b cb3d
000001a0: b08a df3d 257d c53d 8970 1cbe 29d6 243e
000001b0: f237 2bbe a3b3 57bd 7c48 cb3d 18c1 283e
000001c0: 76c8 ed3d dfa8 ca3d 4d6d 133e 259e 0cbe
000001d0: c2da 9d3d 5402 2fbe 5de4 2e3e c455 fdbd
000001e0: 4796 dabd cff0 0bbe caec dc3d 2cd9 203e
000001f0: a527 dfbd b3a4 db3d 02e3 50bd 7885 22be
-0.11468763 0.12271356 -0.14745702 0.06012103 -0.09894307 0.105768606 0.08364572 -0.16852853
-0.078487776 0.08374523 0.07828135 0.117998675 -0.13612457 -0.14607933 -0.07836864 -0.040160622
-0.055862244 -0.15707666 0.079798214 0.092822626 0.057562925 -0.08556452 -0.09382829 0.056407217
0.14899626 -0.12739426 -0.10217694 0.06457523 0.14313167 -0.15201584 0.15395285 0.0970645
-0.11873782 0.09169821 0.109004036 -0.15412374 -0.14572433 -0.17758863 -0.060798723 0.088569336
0.11366277 0.13942617 -0.15014611 0.070671 0.14702718 -0.05079904 -0.06347189 0.107893914
-0.10212636 -0.15777473 -0.10710194 0.04880606 0.08905415 0.10631073 -0.10877634 0.10341504
0.09224147 -0.13217586 0.08452478 -0.06831035 0.08769065 0.12738875 -0.17765102 -0.09787874
-0.13543573 -0.16845302 -0.09815629 -0.15079269 -0.11259156 -0.15726882 0.09328947 0.043484833
0.078302115 0.16936715 0.031021623 -0.07486385 -0.061668515 -0.13731277 0.040183086 -0.105997115
-0.08726013 0.118288174 -0.047211133 0.11708059 -0.11874971 0.15202716 -0.111133546 0.049379967
-0.126497 -0.14145508 0.17589514 0.1385479 -0.06440245 0.09057779 0.15821722 0.08255971
-0.1433839 0.09219527 -0.05558145 -0.08707701 0.15754697 -0.09170883 0.121412404 0.09914349
0.109151244 0.0964301 -0.15277304 0.1609732 -0.1672056 -0.05266155 0.09925935 0.1647991
0.116105005 0.09895491 0.14397164 -0.13732202 0.0770774 -0.17090732 0.17079301 -0.12369874
-0.106731944 -0.1366608 0.107873514 0.15707844 -0.108962335 0.10724773 -0.05099774 -0.15871227

fc.4.weight f4 [64, 128]
00000000: 1f76 13bd f8e5 7ebd 7534 d63d a5b8 24bc
00000010: b730 a53d 2b37 cf3c b639 c93c 6a3b 1e3d
00000020: b6f0 ff3d 94ea d8bd 1882 49bd 741b 6cbc
00000030: 53ae fc3d 3dc1 e73d 3aeb 283d eedb ab3a
00000040: 4097 c0bc cab9 2fbd 9b6e 8dbd 76e6 10bb
00000050: 10f4 edbd 30a9 b53d c9bf 103e 0fd0 933d
00000060: bc75 06bd 08e0 f33d c9cf c63c 12cf 043c
00000070: 7fba 98bd 4e4f 313c d3be 48bc b0a5 91bd
00000080: 0e7a 013c 85ad 2cbd b715 193d f8ee db3d
00000090: 240a cabc 79be 843d 441e a33d 2d04 debd
000000a0: 561d 583c 0352 d7bd 55f1 883d c1cb ecbd
000000b0: 21ed efbd cb4b 613d b628 d23d e679 64bd
000000c0: 418a 2d3e ed22 453d 16b2 513c 998a c8bb
000000d0: fb02 92bd e1f7 88bd abca fd3d 9220 343d
000000e0: b53d 8c3d 2af9 cb3d 31c4 44bc 51cd e13d
000000f0: dd0f 63bd 2782 c9bc 3488 7d3c 5bd5 8a3d
00000100: 230a 7d3d a9f8 923c bd9a 953b 9540 00bb
00000110: e747 6b3d 509a c43d 01cd 52bd 4b53 e4bd
00000120: 14bd 1abd de44 4cbd 19f7 7abd f2fe 0d3e
00000130: b836 313e 85b3 d53d 55c5 a1bd e754 aa3d
00000140: df50 1d3c ae06 bebd 1919 45bd 3942 0dbe
00000150: 9917 0a3e b822 9d3b ba28 0e3e df04 20bb
00000160: fe30 a73d bdda c93d 6334 d13b 5f18 c2bd
00000170: 145f ef3b 2651 92bd 4f57 9dbd 7760 b3bc
00000180: 1b63 003e c74f 0cbe b613 d33c a962 023e
00000190: a41f e5bc 8d71 933c 15c9 ebbd 9968 033d
000001a0: 6c79 eb39 07f8 4e3d dd12 50bc 4c08 35bd
000001b0: 9846 7d3d 16fc 2e3d 7e88 c4bd 2d64 79bd
000001c0: 3fb1 da3c 8c60 6abd ca71 60bd 4224 7c3d
000001d0: e326 b6bd 3e92 b23d 5b3a 07be 349e 8abc
000001e0: 2c7d ba3d dc47 f9bb 0a90 82bc 0024 eabd
000001f0: 4b19 bc3c 43a5 b9bd 1d9f 243e 5b07 103e
00000200: 131e d6bc a90c e43d c1c8 083d 7889 873d
00000210: 4e5e 18bd 82dc f63d 5d95 3e3d 9ea6 a0bd
00000220: 2b6f d5bd 1877 da3b c5bf 953d ef60 eb3d
00000230: 0aba a1bc 2455 53bc b7e9 13be e930 a9bd
00000240: 3209 adbd 3503 063d 37ab d13d 9884 013e
00000250: 1b9a 833d 1f52 81bd 098a cebd abb8 ba3c
00000260: 463c e73d c2a2 32bd 4987 fabd cb6f 0c3d
00000270: f2a1 eb3c 7815 ccbd c0e7 063e fbab 163e
00000280: bdce bbbd 8f2e cc3d 28c3 54ba 990d ddbd
00000290: 79c2 cfbd d2cc fabc f601 353d c427 293e
000002a0: c568 b03d cef4 053e 1a3d 0c3b 2b49 ad3d
000002b0: 9b58 103e bd93 eebd c0bb efbd d0e3 0c3e
000002c0: 4724 bcbd f166 103d f6e9 02be afaf 2e3b
000002d0: 708a 9d3d b302 fa3c 9f44 07bd 94b2 fc3d
000002e0: d52a 973d ca55 73bd 6917 c13d a695 7fbc
000002f0: 306e 1c3d 5954 e13d 32d4 d3bd 1e9f 46bc
00000300: 2391 26be 339d b5bd 65fa dabc 5d7f e4bc
00000310: 8556 fbbd 7c5b 81bb c58e db3c d806 c33b
00000320: 0f00 dd3b c312 2fbd 8c65 643d 3272 a3bc
00000330: c0ce 16be ab0c 663c a2ee c33c 2ffa e0bd
00000340: f7f8 c7bd 48b9 4e3d 3826 c7bc 44ce 8d3d
00000350: bdfb 7c3c 5cbb 8bba 41cf d0bc adda 223e
00000360: 73cb 9abc d39b 95bd 1888 4d3d c850 1a3e
00000370: 6bb0 c4bd a1ee e93d 4625 993d fdbc 333d
00000380: c13c 50bc 3f9d 293e c111 05be b29d 8ebd
00000390: 1be8 ec3d d226 483d 6bec 5d3d 4daf ae3d
000003a0: bb36 883d df48 413c 3d0b 75bd 404f a73d
000003b0: 0a04 b4bd f84b 00be 7a1f ac3d c884 253e
000003c0: f191 cd3d dc48 6b3d 4c1f f33d c98e e9bd
000003d0: 55ab 003e 5b6d d5bd bfc7 5e3c 2c39 7fbb
000003e0: 1d31 0abd 76fd e3ba eccf 0fbd 90eb 9e3d
000003f0: de14 37be 66ae 633d 4126 a3bd 8941 01bd
-0.03600132 -0.062231034 0.10459224 -0.010053788 0.08065932 0.02529486 0.024563652 0.03863088
0.12497084 -0.10591617 -0.049196333 -0.014410842 0.12337937 0.11316154 0.041239955 0.0013111809
-0.023509622 -0.04290179 -0.06905862 -0.0022110022 -0.11618817 0.088701606 0.1413566 0.072174184
-0.032827124 0.11907965 0.024269002 0.00810601 -0.07457446 0.01082213 -0.012252527 -0.071116805
0.007902635 -0.04215767 0.037374225 0.10738939 -0.024663039 0.06481642 0.07964757 -0.1084064
0.013190588 -0.10513689 0.066866554 -0.115623005 -0.117151506 0.055003922 0.10261671 -0.055780314
0.16947271 0.04812901 0.012798807 -0.0061200378 -0.07129475 -0.06687904 0.123921715 0.043976374
0.06847707 0.09959634 -0.012009666 0.11025489 -0.05543505 -0.024598194 0.015474368 0.067789756
0.061777245 0.017940836 0.0045655654 -0.0019569744 0.05744162 0.09599745 -0.05146504 -0.111486994
-0.037777975 -0.049870364 -0.061270807 0.13866785 0.1730603 0.10434631 -0.07898966 0.08316975
0.009601801 -0.09278618 -0.048119638 -0.13794793 0.13485564 0.0047953986 0.13882723 -0.0024416966
0.081636414 0.09856174 0.006384419 -0.09477305 0.0073050354 -0.07144384 -0.076826684 -0.021896584
0.12537806 -0.13702308 0.025766235 0.12732948 -0.027969189 0.017998481 -0.11512963 0.032082174
0.0004491316 0.050529506 -0.01269981 -0.044197366 0.0618349 0.042720877 -0.09596346 -0.06088655
0.026695846 -0.05722098 -0.054796018 0.061558016 -0.08894136 0.087193 -0.13205855 -0.01692114
0.09105906 -0.0076074433 -0.015937824 -0.11432648 0.02296128 -0.09064724 0.16076322 0.14065306
-0.026137387 0.11135227 0.03339458 0.06618017 -0.03719931 0.12053777 0.046529163 -0.0784428
-0.10421594 0.006667029 0.07311968 0.11493098 -0.01974203 -0.012898717 -0.14444624 -0.08261282
-0.084490195 0.032717902 0.10237735 0.12648237 0.06425878 -0.063144915 -0.10084922 0.022793135
0.11290793 -0.04361225 -0.12232835 0.0342863 0.028763745 -0.09965032 0.13174343 0.14714043
-0.091702916 0.09969818 -0.0008116239 -0.10793609 -0.101445146 -0.030615244 0.044191323 0.16519076
0.08613733 0.13081667 0.0021398724 0.08461221 0.140963 -0.116492726 -0.11705732 0.13758779
-0.09186607 0.035254423 -0.12784562 0.0026655009 0.076924205 0.030518865 -0.033024427 0.123387486
0.073812164 -0.059407987 0.09428293 -0.015599644 0.03819102 0.11002416 -0.103432074 -0.012122897
-0.16266303 -0.08867874 -0.026730726 -0.027892763 -0.12272362 -0.0039476734 0.026801476 0.0059517436
0.0067443918 -0.042742502 0.055760905 -0.019951914 -0.14727306 0.014041106 0.0239175 -0.10985219
-0.09764283 0.050469667 -0.024310216 0.06924108 0.015440878 -0.0010660696 -0.025489451 0.1590373
-0.01889584 -0.07305112 0.050178617 0.15069878 -0.096039616 0.11422468 0.074778125 0.043881405
-0.012709797 0.16563891 -0.12995054 -0.06963672 0.11567708 0.048865147 0.054180544 0.0852953
0.06651064 0.011797159 -0.05982517 0.081694126 -0.08789833 -0.1252898 0.08404441 0.16163933
0.10037602 0.05744253 0.11871204 -0.11404187 0.12565358 -0.104212485 0.013597428 -0.003894399
-0.033738244 -0.0017394263 -0.0351104 0.07759774 -0.17879054 0.05558624 -0.07966281 -0.03155664

fc.4.bias f4 [64]
00000000: 92cb f9bd 1f3d 353e bb04 c53d 0b25 b5bd
00000010: 325c 1fbd 7fbb 413e 5548 28be 619b 46bd
00000020: ee4d 443e 338f 303e 42d2 3e3e 4631 7ebd
00000030: 7875 9ebd f788 adbd 9bc0 3e3e b22f f7bd
00000040: 5504 d53d 8cd8 aebd 087f aabc 132b 34be
00000050: 66d6 68bd 54c1 20bd a843 663d d7c0 bf3d
00000060: b5a7 ff3d 4b59 85bd 87d9 91bd c767 31be
00000070: b0da 21bd aba3 31be 03e0 363e ec9e b73d
00000080: dab1 14be 534a 2bbe 5732 e83d b654 c0bc
00000090: 3254 393d ba95 383d 3273 1ebe 4155 75bd
000000a0: 0ae6 00be 6351 20be a233 6a3d 1240 89bd
000000b0: 665c 1fbe 62bd 0a3e 9005 0cbe db9b 71bc
000000c0: fb49 e4bd 09e6 34be 62fe 18bd 9ca2 e13d
000000d0: 5502 383e 7775 cb3d 7acf 0d3e 5dbc 1d3e
000000e0: d12b 8b3d 5cd5 d337 ac1f abbd 9651 81bd
000000f0: d296 883d ef5c 0abe 7d7d b83d 5d2b 1cbe
-0.12197031 0.17699097 0.09620043 -0.08844956 -0.038906284 0.1891918 -0.16433842 -0.048488025
0.19170353 0.17242126 0.18634894 -0.06205871 -0.07737249 -0.084733896 0.1862816 -0.12069644
0.10401217 -0.08537397 -0.020812526 -0.17594557 -0.05684509 -0.039246872 0.056216866 0.09362953
0.124831595 -0.06511172 -0.07121568 -0.17324744 -0.039515197 -0.1734759 0.17858891 0.08965859
-0.1452097 -0.16727571 0.113377266 -0.023477893 0.04524631 0.045064665 -0.15473631 -0.059895758
-0.12587753 -0.15656047 0.057178147 -0.067016736 -0.15562591 0.13548806 -0.13673997 -0.0147466315
-0.11146923 -0.17665876 -0.037351973 0.110173434 0.1796964 0.09934514 0.13848677 0.15403886
0.06795467 2.5252513e-05 -0.0835565 -0.063143894 0.06669392 -0.13512014 0.0900831 -0.15250917

fc.6.weight f4 [2, 64]
00000000: 6c76 153e e478 39be 95bd 57be e7a4 693e
00000010: d03c 3b3e 7843 27be 9b2e f43d 1f6d f1bd
00000020: 1e65 4bbd 725f 54be d26e 38be 08d3 3f3e
00000030: 7f60 cebd d566 af3d 9bc2 2ebe 0ca3 663e
00000040: e677 80be 2c40 573e 6a26 713e 1f6e 6d3e
00000050: 64e1 63bd fe1e e33d ac77 b3bd 4f1a 39be
00000060: 7dd6 27be c732 f63d 271f f13b db18 bc3d
00000070: 5e0c e23d 5e8a 083e 3bbc 58be 7c97 87bd
00000080: 257d 723d 945c 313e e1c6 77be 8704 fc3d
00000090: 0d16 53be 98f3 c3bd 515e 763e d916 a1bd
000000a0: 167b 203e 220a e53d 8ffa 40be 91d2 553e
000000b0: 721a 3e3d 1c7e 0abe 78b1 ab3d e825 1f3e
000000c0: 21c1 363e 872c 693e f761 103e a29d 4abe
000000d0: 295e 18be 2ee8 49be 8e2a 72be e21e 07be
000000e0: 64eb f8bd a935 44be a6ee ddbd 13f1 ddbd
000000f0: c1c9 0cbe 9ce6 6b3e 11d9 6abe ff48 6a3e
00000100: 3168 11be 4a7a 583e e3cb 5a3e be0e c4ba
00000110: 069c 80bd 59f2 123e 4197 2cbe 8e01 a03c
00000120: c916 7f3e e070 373e a074 673e ef68 14be
00000130: 2744 a43d b0d5 15be a64b 2a3e 8a5b 8ebd
00000140: c0b9 503d 3f40 1cbe 7b87 16be 7097 63bd
00000150: 7f1f 1abd e907 28be 3ea6 d5bc 8d9a 843e
00000160: 0809 fe3d 74b4 1bbe b99a a63d 10f8 18be
00000170: 3bbc 60be c3d7 d1bd 8786 1a3e b103 313e
00000180: 0aad 59be 78b1 4dbe 3e41 7e3c 4278 65be
00000190: 545c 213e b241 3f3e da08 8cbc 6f89 b23d
000001a0: 152e 78be d93b 30be 2292 2b3e bb22 47be
000001b0: ee20 72be a4d5 073e dead 1abe fcbc 01be
000001c0: 999b cdbd 79b3 a6bd 4c87 10be efa7 693e
000001d0: e234 673e b373 2e3e f746 0f3e 7f7a 803e
000001e0: b4ce 283e caae 093d 62cf 24bd 838b 8f3d
000001f0: 3e43 103e c7b0 babc af09 183d 92a0 d3bd
0.14595956 -0.18112522 -0.21068414 0.22816812 0.18284917 -0.16334331 0.11922952 -0.11788391
-0.04965698 -0.20739534 -0.18011025 0.18732846 -0.10076999 0.085645355 -0.17066424 0.22523135
-0.25091475 0.21020573 0.2354981 0.23186539 -0.05563487 0.11089896 -0.0876306 -0.18076442
-0.16390415 0.12021404 0.00735845 0.09184428 0.11037515 0.13334033 -0.21165554 -0.0662069
0.05920138 0.17320472 -0.2419696 0.12305551 -0.2061388 -0.09567946 0.24059416 -0.07865686
0.15671954 0.11183573 -0.1884558 0.20881106 0.04641194 -0.1352467 0.08383459 0.15541804
0.1784711 0.22770892 0.1409987 -0.19786695 -0.14879669 -0.19717476 -0.23649046 -0.13195375
-0.12154272 -0.19161095 -0.10836534 -0.10836997 -0.13748838 0.23037189 -0.22934367 0.22879408
-0.14199902 0.211404 0.21366839 -0.0014958007 -0.06279759 0.14350261 -0.16854574 0.019531991
0.24911036 0.17914152 0.22603083 -0.14493154 0.080208115 -0.14632297 0.1663042 -0.069510534
0.050958395 -0.15258883 -0.14700119 -0.055564344 -0.037627693 -0.16409267 -0.026080247 0.25899163
0.12404066 -0.15205556 0.0813498 -0.14938378 -0.21946804 -0.102462314 0.1509038 0.17286564
-0.21257415 -0.2008723 0.015518485 -0.22409156 0.15757877 0.18677405 -0.017094065 0.0871762
-0.24236329 -0.1721033 0.16754964 -0.19446842 -0.23645374 0.13265091 -0.15105388 -0.12669748
-0.100394435 -0.081397004 -0.14114112 0.22817968 0.22578767 0.17036323 0.13991915 0.25093457
0.16485101 0.033613957 -0.04023684 0.070090316 0.14088151 -0.022789372 0.03711861 -0.10333361

fc.6.bias f4 [2]
00000000: 822f 42be 2a2b 0d3e
-0.18963435 0.13785997
